models/tinyvgg.pth (torch, 34439 bytes, 10 tensors)

conv_block_1.0.weight f4 [10, 1, 3, 3]
000000 b9 4a 05 3f a6 6b 85 3e 21 1d cc be 78 af 56 3e
       0.5206714 0.26058692 -0.39865974 0.20965374
000010 f3 1e 48 3e 70 bf 8d be 62 f7 c3 be af 39 75 3e
       0.19543056 -0.27685118 -0.38274676 0.23947786
000020 b0 8c be 3e 81 33 cb be 53 dd 00 3f e2 3e 80 3a
       0.3721671 -0.39687732 0.50337714 0.0009784366
000030 80 98 6b 3e 23 a2 d9 3e 9e f0 05 bb 06 05 ec bc
       0.23007393 0.42506513 -0.0020437608 -0.02881099
000040 5e 18 ae 3d 61 79 81 3e f1 8e 0b bf 78 30 9c bd
       0.085007414 0.25287917 -0.54514986 -0.07626432
000050 f2 d9 77 3e e0 7b 7e bf c6 3c 69 bf b2 cb 09 3e
       0.24204233 -0.9940777 -0.9110836 0.1345661
000060 18 e3 80 bf 56 d3 69 bf dd cd 42 be 26 48 8f bf
       -1.0069304 -0.913381 -0.19023843 -1.1193893
000070 d3 e6 cc bf ec d4 78 bf bb 30 c6 3e c7 8c 81 bf
       -1.6007942 -0.97199893 0.38709053 -1.0121087
000080 ed bb 7c 3d 29 d9 8f 3e 95 63 09 bd 50 cb cd 3e
       0.061702657 0.28095368 -0.033542234 0.40194178
000090 35 15 26 be 51 3a 94 3e 63 7d e1 bd 49 af b5 be
       -0.16219027 0.28950742 -0.11010244 -0.35485294
0000a0 10 4c 29 3e 0e 5c 9d be 8f fe 18 be 31 f7 0a 3d
       0.16532922 -0.30734295 -0.14940856 0.033927146
0000b0 e8 67 7e 3d 5e a2 16 be 23 cf 46 3e 66 b1 8c 3d
       0.06211081 -0.14710376 0.19414954 0.068697736
0000c0 32 44 3b 3e cd dc 4f be 79 70 a8 be 87 02 f4 bd
       0.18287733 -0.20299073 -0.3289831 -0.119145446
0000d0 5f 76 82 be 73 aa 78 3e e1 98 89 3e b4 a2 8b 3e
       -0.25480935 0.24283771 0.2687445 0.2727257
0000e0 f6 50 37 be fd 75 4c 3e 51 33 a6 3e 2d 53 c9 be
       -0.17901978 0.19966884 0.32461026 -0.3932127
0000f0 f6 bf af 3d 4f 78 02 bf 47 de b9 bb c9 42 6e bd
       0.085815355 -0.50964826 -0.0056722495 -0.05816916
000100 b1 f1 46 3e 4e e0 8c be 76 f9 d9 3e 4d 79 c8 be
       0.19428135 -0.2751488 0.42573136 -0.39155045
000110 4c 5e 52 bf cd 95 97 be 06 03 33 3f 21 0c b1 3e
       -0.82175136 -0.29606476 0.6992649 0.34579566
000120 36 00 85 3f 34 36 1a bd 58 98 29 bf 1f d2 d2 be
       1.0390689 -0.03764935 -0.66248083 -0.41175935
000130 74 07 0a bf 3a 22 ab be 1e e7 ea 3e 26 79 1c 3f
       -0.5391762 -0.3342455 0.45879453 0.6112236
000140 bc 3a a5 bd db fc 67 be 3a 76 32 3e 02 48 0a be
       -0.08067843 -0.2265505 0.17427912 -0.13504031
000150 0b a8 4c 3e c5 97 a4 bd 33 23 41 3e 5f f3 84 be
       0.19985978 -0.0803676 0.18861084 -0.25966927
000160 79 37 2d be 4c 18 cf 3d
       -0.16915692 0.10112056

conv_block_1.0.bias f4 [10]
000000 a1 1e 49 bd 80 c6 89 3b d9 7a 82 3e 8d 4a 11 3e
       -0.049101476 0.0042045712 0.2548435 0.14188595
000010 85 be 73 be 57 28 54 be 70 0d 59 3d 55 a5 8a bd
       -0.23803146 -0.20718513 0.05299133 -0.06769816
000020 4d 74 96 be a8 95 a6 be
       -0.29385605 -0.32536054

conv_block_1.2.weight f4 [10, 10, 3, 3]
000000 0b 5a 8c 3d 7e 25 e2 3d c0 a0 aa 3c e7 24 25 bd
       0.06853112 0.11042307 0.020828605 -0.040318396
000010 f2 e9 a3 be 24 e1 8b be 30 7b 5d bd b4 13 30 be
       -0.32014424 -0.27320206 -0.05407256 -0.17195016
000020 ac 94 1a be b9 e5 a3 bc b6 e9 6c ba 1b 43 3e bd
       -0.15095776 -0.020007001 -0.0009037511 -0.046450716
000030 25 2b 20 be a7 c8 8a be d2 9d 05 be 77 1b 9c bc
       -0.15641458 -0.2710621 -0.13048485 -0.019056065
000040 2f 68 32 be 73 bf 08 be 1a 68 4e bd 80 01 67 bc
       -0.17422555 -0.13354282 -0.050392248 -0.014099479
000050 c7 68 24 3e d5 40 c5 3d 54 a5 cf 3e 4b 2a cc 3e
       0.16055594 0.09631506 0.40555823 0.39876017
000060 87 a7 9c bd 20 74 0d 3d 9c cc 04 3e 4c f8 53 be
       -0.07649141 0.034534574 0.12968677 -0.20700186
000070 fc 98 fb bd 9a c6 79 be 62 ca 8c 3d b3 e8 13 3d
       -0.12285039 -0.24392167 0.06874539 0.03611059
000080 0e 4f 51 be 9e 8e b6 3e 4f 74 be 3d 5d ce 14 3d
       -0.20440313 0.35655683 0.09299528 0.036329616
000090 8d f4 29 be 84 72 37 be 6c 6f 5f bd 19 92 cc bd
       -0.16597195 -0.17914778 -0.05454962 -0.099888034
0000a0 ed f9 0f bd d1 0d 3b be da 93 ae 3d d9 47 cb bd
       -0.035150457 -0.1826699 0.08524294 -0.09925813
0000b0 cd 7c 43 bd 15 75 bb 3c bb b5 5e 3d 30 e9 ab 3d
       -0.04772644 0.022882978 0.05437253 0.08394086
0000c0 01 1e c6 3d ee 38 ac bd 18 81 e2 3c a5 0f 38 bd
       0.096736915 -0.08409296 0.027649447 -0.044936795
0000d0 39 7d 4f bc 09 f2 9e bd 59 d9 f7 3d 5e a1 a5 bd
       -0.012664133 -0.07761008 0.12102003 -0.08087419
0000e0 fd de 1b be 43 a4 74 3c c2 da 86 bd b6 e0 16 be
       -0.15221782 0.014931741 -0.065846935 -0.14734158
0000f0 57 88 bc ba a2 99 c9 bc ba 41 b1 bd e0 35 1a bd
       -0.0014383894 -0.02460939 -0.086551145 -0.037649035
000100 c3 13 d3 3c 0c c5 a7 bb de f1 f1 bc 33 86 26 3d
       0.025766259 -0.0051199254 -0.029534277 0.040655326
000110 02 1c 04 bd 58 e4 9a bc 71 1e c5 bd 14 94 82 bd
       -0.032253273 -0.01890771 -0.09624947 -0.063759
000120 64 05 e7 bc 15 91 b3 3d 21 8a 14 bc 42 76 8b bd
       -0.028200813 0.087679066 -0.009066136 -0.06809665
000130 bf f3 8c bd bf 5a a3 3c ad 2e 50 3d 83 6f bc bd
       -0.068824284 0.019940732 0.050825763 -0.09200957
000140 e6 2f fa bd 83 f9 5e 3d 7c c6 9c 3c 94 c0 19 bd
       -0.12216167 0.05443717 0.019137613 -0.037537172
000150 b8 59 61 3d c6 e4 62 3d 03 7f 21 3d 95 bb 97 bc
       0.055017203 0.055393957 0.03942777 -0.018522063
000160 c4 a8 e4 bc 14 a8 38 3c 08 86 23 bd 1e 23 24 bd
       -0.027912505 0.011270542 -0.039922744 -0.040072553
000170 96 d0 8b 3d a1 3d 91 3d 81 bf a7 bc 4d ef bb bc
       0.06826894 0.07091833 -0.020477058 -0.022941256
000180 0f 6c ca bb 30 06 07 3c 93 23 c8 3c de fa 8d 3c
       -0.0061774324 0.008241221 0.024431026 0.017331537
000190 b6 5f bf bd fa b8 0e bd f9 06 b4 3d 39 83 38 3d
       -0.09344427 -0.034844376 0.087903924 0.04504702
0001a0 eb a3 47 bb 78 ac b3 bd 4b 23 5e bd 62 18 b8 bd
       -0.0030462693 -0.0877313 -0.054232877 -0.08989026
0001b0 56 de 0c bd 9f 31 01 3d 47 b1 7a 3d d5 c8 48 3d
       -0.034391724 0.031541463 0.06120422 0.049019653
0001c0 61 ce cc bd 3f 73 94 bd 2e 72 8a bc 23 4a c6 3d
       -0.10000301 -0.07248544 -0.016900148 0.09682109
0001d0 db cd 91 3b 96 ce 6c bc 43 a3 06 3d e8 da 55 bd
       0.0044495887 -0.014453551 0.032870542 -0.05221072
0001e0 21 fe 8c bd ce e6 84 3d fd df 75 bd 6b 2d a5 bc
       -0.06884409 0.06489335 -0.060028065 -0.020163259
0001f0 b8 7d e0 bd 7e bf 94 3d d0 87 93 3d 5e fc 13 3d
       -0.10961479 0.07263087 0.072036386 0.036129348
000200 5f b0 9d bd 41 b1 ea bd d3 d2 b8 bd aa 9b 9d 3d
       -0.07699656 -0.1145959 -0.090245865 0.07695706
000210 ec c5 33 3d 72 0b c2 3d ee fb 70 3d 97 a7 da 3c
       0.043889925 0.09474839 0.05883401 0.026691241
000220 07 80 8b ba fe 39 a4 bd 76 f7 b8 bd 1b b9 c9 bd
       -0.0010643014 -0.08018874 -0.090315744 -0.09849759
000230 cd 6d 31 3d cc 9b 53 bd 67 6e ae bc f6 94 78 bd
       0.043317605 -0.05166225 -0.021292878 -0.060688935
000240 41 8f 00 bd fe 72 a3 bd 87 ce 90 bd 69 8b b3 3c
       -0.031386618 -0.079809174 -0.07070642 0.021917062
000250 83 8f 0e bd 8f 85 8f 3d 08 ea 03 bd 45 0c ba bd
       -0.034804832 0.07007896 -0.03220561 -0.090843715
000260 19 ff d3 bc 0b 3a 7a bd 7b ee 06 bd 1f 1c cf bd
       -0.025878476 -0.06109051 -0.032942276 -0.101127855
000270 70 7b 6a 3d 42 ac a2 bd f3 7b 55 3d b9 7e 27 3d
       0.057246625 -0.07943012 0.05212016 0.040892337
000280 0e fc a3 3d cf 9f 9f bd 77 cc 4e 3d 07 cf 67 bd
       0.0800706 -0.07794153 0.05048796 -0.05659392
000290 35 d2 25 3d 6c b9 9f 3d c2 53 a1 bc e4 1b 55 bb
       0.040483672 0.07799038 -0.01969326 -0.0032517845
0002a0 bd 8e 51 bd e2 29 d7 bd e7 05 6b 3d 5d 4e d6 bd
       -0.051161516 -0.105060354 0.057378676 -0.10464165
0002b0 90 03 86 3d f8 89 a1 3d c4 25 cc 3d 06 cd cb bc
       0.06543648 0.078876436 0.09968141 -0.024878036
0002c0 19 68 b1 bd c6 1d c2 3c 92 83 6e 3d e9 dc d6 bd
       -0.08662433 0.023695838 0.058230944 -0.10491354
0002d0 6c e5 c5 bc 9e dc 8a bd e7 97 88 bc 22 3e 62 bd
       -0.024157248 -0.06780361 -0.016673995 -0.055235036
0002e0 dd 32 13 bd 3c 79 7a bc 3f 49 da bd b8 89 bc 3d
       -0.03593718 -0.015287694 -0.10658502 0.09205955
0002f0 c5 89 c0 3d ca da a0 bc 49 88 8c bc 31 7f 47 bd
       0.094012775 -0.019635577 -0.01715483 -0.048705284
000300 0c 4e d0 bd cf 82 c9 bd 95 35 44 3d c8 06 69 bd
       -0.10171136 -0.09839403 0.047902662 -0.056891233
000310 ec 09 5f bd e5 1c 95 3c aa 2b 41 bd bf 84 63 bd
       -0.05445282 0.018202255 -0.047160782 -0.05554652
000320 26 ef ab bc c6 dd a5 bc ed 07 27 bd 60 05 90 bd
       -0.020988058 -0.020247351 -0.040779043 -0.07032275
000330 ca 56 be bd ef da b7 3d d1 b7 26 bd fa 8a 0a bc
       -0.092938974 0.08977305 -0.040702645 -0.008455986
000340 f6 c4 7f bd 27 31 99 bc fd 7a ba 3d a7 6c 53 3d
       -0.062443696 -0.018700195 0.091054894 0.05161729
000350 38 32 64 bd 57 d0 63 3d b9 ae c4 3d 26 c5 10 3d
       -0.055711955 0.05561861 0.09603638 0.035344265
000360 79 f7 8e 3d 12 e9 d2 3d 05 01 85 bc b0 b4 ae 3c
       0.069807954 0.10298361 -0.016235838 0.021326393
000370 3b d8 91 bd 59 19 53 bc ce 47 a1 3d 56 99 6f 3d
       -0.07121321 -0.012884461 0.07875024 0.058495842
000380 24 9b 85 bd 9c 16 ad bd 42 76 93 bd ba 18 d5 bd
       -0.06523731 -0.08451578 -0.0720029 -0.10405107
000390 20 8f a6 bd 6b cb d4 bc 82 de 91 3d 28 0f 91 3c
       -0.08132768 -0.025975903 0.07122518 0.017707422
0003a0 de dc a3 bd 2f 29 ad bd aa b2 1a 3d fb a9 bc bd
       -0.080011114 -0.08455121 0.037768044 -0.09212109
0003b0 32 2a ca bc 24 34 47 3d 57 4d 57 bd 98 70 79 bc
       -0.024678323 0.04863371 -0.05256399 -0.015224598
0003c0 f9 6c 9c bc 00 30 e0 bc 61 4d 69 bd 00 be c0 bd
       -0.019094931 -0.027366638 -0.05695856 -0.094112396
0003d0 5d a3 ae bd 37 d7 68 bd 85 3f b0 3d 6f 57 49 bd
       -0.08527253 -0.05684587 0.086058654 -0.04915565
0003e0 c8 a9 81 bd c2 fe 5e 3c 8d f3 7d 3c ca a9 0e 3d
       -0.06331211 0.013610544 0.015499962 0.034829892
0003f0 b7 38 a3 3d f5 d3 6c 3d 12 20 d6 bd 7f 32 48 3b
       0.07969802 0.057819325 -0.10455336 0.0030547676

conv_block_1.2.bias f4 [10]
000000 7e 83 9f 3e d0 4e 97 bd ad c3 81 bd 0f e8 e0 3e
       0.31155008 -0.07388079 -0.0633615 0.43927047
000010 f5 a8 c4 bd cc e1 16 3d 15 4d e3 3d 5e bf d8 bc
       -0.096025385 0.03683643 0.110986866 -0.026458438
000020 ce 5d a2 3e b1 0c 9d bd
       0.31712192 -0.07668436

conv_block_2.0.weight f4 [10, 10, 3, 3]
000000 68 54 0f bd 3a 68 c3 bd a7 fd 7e bd 24 7e 4f 3d
       -0.034992605 -0.09541364 -0.06225362 0.050657406
000010 14 cf 8f 3d c3 18 06 3e cc 3b bc bd 03 54 a3 3d
       0.07021919 0.13095383 -0.09191093 0.07975008
000020 68 02 9d 3d b2 16 6c 3d 49 0f c8 bd af c9 28 bd
       0.076664746 0.05763883 -0.097685404 -0.041207965
000030 cd ad b7 bd 01 3d 88 bd 59 98 68 3d a9 0b 70 bc
       -0.08968697 -0.066522606 0.056785915 -0.0146512175
000040 77 6a 3d 3d 61 05 80 bd ce 15 c2 3c 99 d2 75 bd
       0.04624411 -0.06251026 0.023692038 -0.060015295
000050 4a 7e 53 3d 76 cf 42 bd 04 a1 d6 bc 2e 45 b9 bd
       0.05163411 -0.04756113 -0.026199825 -0.09046398
000060 ed bf 2d 3b d6 c6 cf 3d 9e e3 4d 3d 63 be f9 bd
       0.0026512102 0.10145347 0.0502659 -0.121945165
000070 b4 4e de bc a9 22 af bd a2 bf be bd 4c fb 23 3e
       -0.027137138 -0.08551533 -0.09313895 0.16013831
000080 96 f3 f0 bb a9 09 e5 bb b9 4c 0d bd a5 5c 41 bc
       -0.0073532565 -0.006989677 -0.034496997 -0.011801873
000090 3d 35 61 3c 29 3d 4b 3d 3d 99 9c 3c 3c 05 51 bd
       0.013745603 0.049618874 0.019116038 -0.051030383
0000a0 64 7f ed 3d f3 36 fb bc 29 e7 99 bd fa 8d 64 bd
       0.115965635 -0.03066585 -0.075147934 -0.055799462
0000b0 8b 80 b8 3d 2e 0b f6 3d 20 f9 89 3d 7c e1 bb bc
       0.090088926 0.12013851 0.0673697 -0.022934668
0000c0 7d bf 94 3b a6 3e 86 bd f4 57 f2 bd 35 b5 a6 3b
       0.0045394287 -0.06554918 -0.11833182 0.0050875195
0000d0 f7 ba 9d 3c 63 9e 47 3c 1a 0a 71 be 15 34 fa 3d
       0.01925419 0.012183758 -0.2353901 0.12216965
0000e0 1c 76 12 be dd f6 a4 bc eb 90 9c 3d 20 94 e4 bc
       -0.14302868 -0.020137245 0.076448284 -0.027902663
0000f0 f9 ab 9d 3e e5 7d 87 bd f6 01 2f be df 75 50 3c
       0.30795267 -0.06615809 -0.17090592 0.012723415
000100 f7 45 5b 3b 7a 9f 85 bc db d5 53 bd a6 17 5f 3d
       0.003345845 -0.016311396 -0.05171762 0.054465912
000110 8c d8 34 be 61 06 d1 3d 43 5a 6e be 24 d9 19 be
       -0.17660731 0.10206295 -0.2327662 -0.15024239
000120 87 22 9f bd bd 7d ad bd 1b 8a 29 bd 3c 28 91 3d
       -0.077702574 -0.08471248 -0.041391473 0.07087752
000130 3c b4 38 3e f3 3a 63 bc 2a e4 e0 bc 90 99 59 bd
       0.18037504 -0.013869035 -0.027452547 -0.053124964
000140 d4 a8 00 bd 4e 4a 8c 3e ff 62 3b be 56 db 19 3e
       -0.031411007 0.2740044 -0.18299483 0.15025076
000150 e8 40 bc 3e 81 b3 69 3c 35 d4 78 bd 42 d4 72 3e
       0.3676827 0.0142639885 -0.06074925 0.23713782
000160 f0 cf 8a 3d bc e4 38 bd 4e b4 15 3d 31 06 d0 be
       0.06777942 -0.045140013 0.036548905 -0.40629724
000170 02 af 9c be a7 00 3b 3e 08 80 30 be e1 3a a9 3d
       -0.3060227 0.18261968 -0.1723634 0.082631834
000180 29 a4 42 3d 1b 85 c5 3d 2a 4b 4e be ca 9d 14 3d
       0.047519837 0.096445285 -0.2014586 0.036283292
000190 5f 3a 3e bd 50 60 f4 bd fc e9 32 bd a7 64 b1 3d
       -0.046442386 -0.11932433 -0.043680176 0.08661776
0001a0 36 f4 68 bc 7e c7 b9 3c 70 53 47 bd 94 d6 85 3d
       -0.014218381 0.022678133 -0.048663557 0.06535068
0001b0 05 5a 7b 3d 90 51 28 3d 40 d8 cb bc b1 0d be bd
       0.061365146 0.04109341 -0.02488339 -0.09279955
0001c0 b5 6f 4a bb 42 e0 8f bd df 19 b0 3d 46 a8 cd bd
       -0.0030889336 -0.07025196 0.085986845 -0.10041861
0001d0 7e 88 3f 3d aa 37 97 bd 7b 8b 8b 3e 1e 15 86 3d
       0.04676103 -0.07383664 0.27254853 0.065469965
0001e0 74 cc f9 3c 38 e6 57 3f 5c 3b 2a 3e 65 ef 3a bf
       0.030492999 0.8433566 0.16624206 -0.7302154
0001f0 32 12 96 be ea 18 2c be a8 81 dc 3d 5c 79 17 3e
       -0.29310757 -0.16806379 0.107669175 0.14792389
000200 ca 23 86 bd c4 9a 38 bb 4f a6 d3 bd 38 51 ee bc
       -0.06549795 -0.002816842 -0.10334455 -0.029091462
000210 fe 7c 54 3d ca 7f db bd 5d 9d eb bd 2a fa 07 be
       0.051877014 -0.10717733 -0.11504624 -0.13279024
000220 1c 02 d9 be ef 15 b5 3d b6 5a b3 3d 22 57 6e 3d
       -0.42384422 0.08842074 0.08757536 0.058188565
000230 d9 22 74 3d 99 cf 8f 3d 22 87 7e 3e a5 35 8d 3d
       0.059603546 0.07022018 0.24856237 0.068949975
000240 e7 59 1a bf ad 23 43 3e 6b 18 36 3e c7 fe 32 bf
       -0.6029343 0.19056578 0.17782752 -0.6992001
000250 9a fc e2 3e 2e 16 0f 3f 66 df 60 be 8d 4f 67 bd
       0.44333345 0.5589322 -0.2196022 -0.05647235
000260 9f 94 13 be e0 87 26 bd 1a d9 ab be d2 0e 99 3d
       -0.14412163 -0.040656924 -0.33564073 0.0747353
000270 74 4a c9 be 9b 13 00 be 4a 84 03 3e 68 34 b2 be
       -0.39314616 -0.12507479 0.12843433 -0.34805608
000280 d7 de 1d be f0 49 40 bd 8b 76 7a be 4e f8 5b 3e
       -0.15417038 -0.046945512 -0.24459283 0.2148144
000290 f0 5b 8d 3e f5 de a8 bd 03 b6 01 3f 04 a3 f8 3d
       0.27609205 -0.08245651 0.5066835 0.12140468
0002a0 79 04 da be 4c b1 80 be e4 1b 86 be 91 c0 43 3e
       -0.42581537 -0.25135267 -0.26193154 0.19116427
0002b0 00 ee e9 3b 66 02 59 be 16 19 34 3e 51 98 88 3c
       0.0071389675 -0.21192321 0.17587695 0.016674193
0002c0 91 37 93 be c4 58 5d be 4f 99 8b 3e 32 3f 1e 3e
       -0.2875333 -0.21615893 0.27265403 0.15453795
0002d0 d8 99 57 bd 47 ee 10 3c e6 55 67 bc 59 f7 a9 bd
       -0.05263695 0.008845872 -0.014119601 -0.08299131
0002e0 57 f1 1d be f1 29 3f bd 82 1b e5 bd f3 cc 72 bd
       -0.15424095 -0.046670858 -0.11186887 -0.059277486
0002f0 2a a0 42 bc bb f8 d1 bc 01 68 5b bd 7b 98 12 bd
       -0.011879006 -0.0256313 -0.053565983 -0.035789948
000300 80 72 1a bd 6f 2f d4 3d a8 92 1f bd 91 39 9b bd
       -0.037706852 0.1036061 -0.03895822 -0.07579339
000310 83 4c 31 3d c1 18 d5 bb b1 7e a6 3d 07 ff 89 3d
       0.043285858 -0.006503195 0.08129633 0.06738096
000320 b5 32 c7 3d f6 b4 9e bd c8 f7 8b 3d 24 22 b7 3d
       0.097264685 -0.07749359 0.0683437 0.08942059
000330 44 a6 55 bd 8d df c5 3d 4b 87 a1 3d 26 59 dd bd
       -0.052160516 0.096617796 0.07887133 -0.10808019
000340 fe e8 b9 3c 60 ae 68 bb 90 b3 27 be a5 29 c7 3d
       0.022694107 -0.0035504326 -0.16377091 0.0972474
000350 e0 4c d2 3d 19 83 39 be 08 9a 1d bd 87 1b 09 be
       0.10268569 -0.18116416 -0.038476974 -0.13389407
000360 31 48 8c 3d 5f bb c6 3d fd f2 2a 3c da 58 6c bd
       0.06849707 0.09703707 0.0104339095 -0.057701923
000370 f3 81 8b 3d 65 97 dd 3c b3 17 99 3c 02 d0 c9 3c
       0.06811895 0.02704973 0.018688058 0.024635319
000380 1f 08 99 3d b5 89 d7 bc ff 40 a4 bc f1 b0 a5 3d
       0.07472252 -0.026310781 -0.020050524 0.080903895
000390 65 6f 42 bc 87 44 be 3d ce f0 b6 3b fd 12 ff bd
       -0.011867379 0.09290414 0.0055829054 -0.124547936
0003a0 38 a0 50 bc 90 df be bd cb be 0e 3e e3 fd 96 bd
       -0.012733512 -0.09319985 0.13939969 -0.07372644
0003b0 da 53 85 3c 10 ef e9 3d 8a a2 f6 bd bc 73 3c 3e
       0.016275335 0.11422551 -0.120427206 0.18403524
0003c0 ac dc 18 3c df e0 53 be 34 fb 93 3c 20 1e 8b 3a
       0.009329956 -0.2069125 0.018064119 0.0010613836
0003d0 bc e0 8d bd 9d 0f 7b 3d ae 9e 95 3d 3c 84 ae 3d
       -0.0692763 0.061294187 0.073056564 0.085213155
0003e0 1f f5 d8 3b 4d a2 38 bd 78 c0 ad 3a 8d 4b af 3d
       0.0066210176 -0.045076657 0.0013256213 0.08559332
0003f0 7b 8b 52 bd 5e 21 0c be 21 91 44 3e 2b 37 2e 3e
       -0.05140255 -0.13684604 0.19195987 0.17013232

conv_block_2.0.bias f4 [10]
000000 44 a9 b0 bd c7 ad 81 3e 3f 03 59 be d9 75 43 be
       -0.08626035 0.25327894 -0.21192645 -0.19087924
000010 19 32 ae be 03 1b b8 bd 9d 2c cd 3e 92 54 3a 3f
       -0.34022596 -0.08989527 0.400731 0.72785294
000020 7a c1 5b 3f c8 8b f3 bd
       0.85842097 -0.118918955

conv_block_2.2.weight f4 [10, 10, 3, 3]
000000 57 64 47 bd 49 12 26 be 7e 46 0a bd 5a 2b 2c bd
       -0.048679676 -0.16217913 -0.033758633 -0.04203353
000010 b8 f8 32 bd eb 63 1c bd 85 59 c3 3c 48 66 7f be
       -0.043694228 -0.038181227 0.023846397 -0.24941361
000020 39 fa d2 bc 5f 8f 21 3c 49 ca b1 bd 8a 57 1e be
       -0.025754081 0.0098608425 -0.08681161 -0.15463081
000030 2d 74 dd bc 7b e6 65 3e d6 57 e7 be 86 41 4b 3e
       -0.027032936 0.22451203 -0.451842 0.19849214
000040 06 fd 82 3e 20 e7 28 bf ec 70 75 be ae 30 27 bd
       0.25583667 -0.6597767 -0.23968858 -0.04081791
000050 60 d1 68 bd a3 aa 5a be c2 53 ad bb 2c 46 6b bd
       -0.0568403 -0.21354155 -0.0052895257 -0.057439968
000060 b9 90 1e be fd 38 d5 3d cb 99 80 be d6 16 4e 3a
       -0.15484895 0.1041126 -0.25117335 0.0007861679
000070 17 61 5a 3d 9d a9 4c be 3d 3d e8 3d 1e 4f e5 bc
       0.05331525 -0.19986577 0.11339805 -0.027991828
000080 15 35 47 be 7a 6f e7 3d 9f a8 fe 3d 82 cb 60 be
       -0.19453843 0.11300559 0.12434506 -0.21952632
000090 58 4e 5a be ff be 4a 3d ef 05 3e be be 10 16 bd
       -0.21318948 0.049498554 -0.18556951 -0.03663706
0000a0 5c 90 cb bd b5 44 21 be 44 85 9a bd 16 03 42 be
       -0.09939644 -0.15748866 -0.0754495 -0.1894649
0000b0 93 6a b7 be 8a 64 67 be f6 03 d6 bd 8e c5 39 3c
       -0.35823497 -0.22596946 -0.10449974 0.011338605
0000c0 01 88 8f bd 13 5f 0c 3e 81 a3 34 3e b4 7a 5c bd
       -0.070083626 0.13708143 0.17640497 -0.053827956
0000d0 f6 b8 d8 bd a0 f6 d3 bd cf 99 24 be 1a 8f e9 3d
       -0.105821535 -0.10349774 -0.16074298 0.114042476
0000e0 e1 34 d1 be dd e4 89 be 3f 27 2f 3e 58 be b1 3e
       -0.40860656 -0.2693242 0.17104815 0.34715533
0000f0 34 30 03 bf 9c 02 8d 3e a4 b2 93 3e 76 2b 8b 3e
       -0.5124543 0.27541053 0.2884723 0.27181596
000100 06 e1 87 bc 70 0b 8a 3b 2c 81 00 be 03 97 e2 3d
       -0.016586792 0.0042127892 -0.12549275 0.110639594
000110 19 47 58 be 7d d7 86 bd 52 f0 79 be 58 d5 89 3d
       -0.21120872 -0.0658407 -0.24408081 0.06730145
000120 87 bd 71 3e e2 2e 8c bc 06 49 38 3d 92 d0 8e be
       0.23607455 -0.0171122 0.044991516 -0.27893502
000130 33 09 13 bf e6 6c ce 3d b4 22 9f be 1f 86 f7 be
       -0.5743591 0.100793645 -0.31081164 -0.48344514
000140 cb 27 ca be cf 11 b4 be f4 0b 91 3c 25 bd 8a ba
       -0.39483485 -0.35169837 0.017705895 -0.0010584934
000150 b7 9d 7f 3d ba 56 67 bc e6 65 4f be 53 89 62 bb
       0.062406268 -0.014119798 -0.20253715 -0.0034566715
000160 85 d2 1d bd 8b c2 03 be 15 67 25 3d e3 d0 9a bd
       -0.038530845 -0.12867181 0.04038151 -0.07559373
000170 5f 4e d5 3d 93 8f 08 be 0c 49 48 3d ad bc b1 3d
       0.10415339 -0.13336019 0.048897788 0.08678565
000180 db ed 57 3d 23 cd 63 bc 6c 64 cd 3d bb 6e a2 be
       0.05271707 -0.013903889 0.100289196 -0.31725106
000190 c6 b0 68 3e 17 91 bd bd 4b 08 05 bd b2 4e e6 be
       0.22723684 -0.09256189 -0.032478612 -0.44981915
0001a0 e0 ba bd 3e 2e 1a 92 3d 9f 52 1b bf d1 3c 36 3e
       0.37056637 0.071339 -0.60672945 0.17796637
0001b0 a7 8b 95 bd 3f 64 83 3d 76 59 12 3d 95 5b b0 3d
       -0.07302027 0.06415605 0.035729848 0.08611218
0001c0 d9 e7 1d 3d b0 10 d2 bc 4c 5c 78 bc 9b 85 07 be
       0.038551185 -0.025642723 -0.015158724 -0.1323456
0001d0 b4 b7 b3 bd f7 0d 77 3e 4e ae 39 bd d3 0e e8 3d
       -0.08775273 0.24126421 -0.045332246 0.113309525
0001e0 f6 1a a9 3e f3 83 b3 be 5d de a7 be c2 b0 79 3e
       0.33028382 -0.35061607 -0.32786837 0.24383834
0001f0 a7 90 06 be 08 2d 5d be fe 52 25 3d 7d 00 9e 3c
       -0.13141118 -0.2159921 0.04036235 0.019287342
000200 71 b0 8e 3d db da 26 3e 9a 23 12 be 9a a2 70 3e
       0.06967247 0.16294424 -0.14271393 0.23499528
000210 71 97 94 3e 60 34 95 bd 6f 5f 7b bc 4f bc 00 be
       0.2902179 -0.0728538 -0.015342577 -0.12571834
000220 8a 29 c2 3d bf 3a 3e 3e 29 38 00 3e c6 f8 bb bb
       0.09480579 0.18577097 0.12521423 -0.005736443
000230 c0 21 d4 3d 78 ac 96 3e 98 af ad 3c 5d 95 be bd
       0.10358 0.29428458 0.021201894 -0.093058325
000240 39 89 74 bd 35 04 d6 be 6c 9b 11 bd 31 d8 07 be
       -0.05970118 -0.41800085 -0.035548612 -0.13266064
000250 bd 7d 8d bd 6f 1f 6b 3e 06 95 63 3e e9 30 46 be
       -0.06908748 0.2296121 0.22224817 -0.19354595
000260 75 81 f8 3c b9 71 68 3d 1a c3 1b be d1 37 67 3e
       0.030335167 0.05674908 -0.15211144 0.22579886
000270 fb 12 03 be cd 45 e1 be 06 55 9b 3e b6 7d 88 3c
       -0.12800209 -0.43998566 0.30338305 0.016661506
000280 ae f2 43 bf b6 5a 84 3e c3 1f c7 be a5 84 b1 be
       -0.76542175 0.25850457 -0.3889142 -0.34671512
000290 d6 89 de be 27 83 bf 3d e8 78 a0 3e 76 c7 2e bf
       -0.43464535 0.09351187 0.31342244 -0.68273103
0002a0 a4 ee 19 3e 34 1e 5e 3e 89 10 ec bd af bd 6e be
       0.1503244 0.21691209 -0.11526591 -0.23314546
0002b0 1d 56 01 3e 76 80 a0 3e 11 21 96 be 29 ae 97 be
       0.12630506 0.31348008 -0.29322103 -0.2962506
0002c0 26 1e 59 3d 9d 5a 71 be d8 5d 7b be 0f ec e1 bd
       0.053007267 -0.23569722 -0.24547517 -0.11031353
0002d0 e1 43 47 3e 99 c0 dc 3d f8 d2 ee bd 0e bc 18 bd
       0.19459487 0.107789226 -0.11661333 -0.037288718
0002e0 3b 87 5d 3d e6 ad 9f 3d cd 2b c7 3d 50 d9 23 3d
       0.054084044 0.0779684 0.09725151 0.040002167
0002f0 32 3c 2b 3e 95 cb 18 bf b6 9b 77 be bc 57 96 be
       0.16722181 -0.5968564 -0.24180493 -0.2936381
000300 82 c5 41 be 3e f4 80 3e e7 35 2b be 53 a4 b7 bd
       -0.18923 0.25186342 -0.16719781 -0.08966889
000310 01 3f 16 3e 87 99 fd 3e 11 c0 a9 bc 6c 4f c0 bd
       0.14672472 0.49531195 -0.020721467 -0.093901485
000320 7b 49 cc bd 92 28 8f 3d ee 2a 74 3d 4b 86 a1 3d
       -0.09974953 0.0699016 0.059611253 0.078869425
000330 c6 fe 2e 3c f2 f2 85 bd 2d 81 7a 3e 4c 55 c5 be
       0.01068086 -0.06540479 0.24463339 -0.3854164
000340 3b 02 34 3e b9 00 60 3d 03 40 6e 3e 3f 50 60 3d
       0.17578976 0.05468819 0.23266606 0.05476403
000350 c9 dd 7d be 3d 61 3e be b7 d3 2e 3d 47 13 81 bd
       -0.24791636 -0.18591781 0.042682376 -0.06302505
000360 60 12 bc 3d f5 ab fa bd f6 bf 6b be bf 90 2a bd
       0.09183192 -0.122398295 -0.23022446 -0.041641947
000370 c4 63 e2 3c 54 07 09 be 6e 3e 68 3d 80 01 34 3d
       0.027635463 -0.13381702 0.056700163 0.043946743
000380 44 ea 04 be e4 18 28 3e 9d ae cc 3d f1 ba 0a be
       -0.1297999 0.16415745 0.09994242 -0.13547875
000390 36 8d 14 3e f2 12 d1 bc 99 9d d8 bd 18 a2 87 bd
       0.14506993 -0.02552173 -0.10576934 -0.06622714
0003a0 3d ed 9f 3d 34 55 0a be 8b 0b 50 bf 15 10 44 be
       0.078089215 -0.13509065 -0.81267613 -0.1914676
0003b0 c3 14 1f 3e b1 22 06 bf c6 68 5d be 1c 95 27 be
       0.15535264 -0.52396685 -0.21621999 -0.16365474
0003c0 2c 30 3a be b8 ca a4 bc 49 9f 91 3e a8 ab 49 3d
       -0.18182439 -0.020116195 0.28441837 0.04923597
0003d0 7c eb f6 3e 68 54 38 3d e4 1c bd be 7d ff 99 3e
       0.48226535 0.04500237 -0.36936104 0.30077735
0003e0 ee 60 ac bd dc a9 39 3d 29 c5 0e bf b5 2b 1a be
       -0.08416925 0.045328006 -0.5576959 -0.15055735
0003f0 27 87 bd bd d5 e4 73 bd dc 6b 81 bd 33 bf 77 bd
       -0.09254294 -0.059544403 -0.06319401 -0.060485076

conv_block_2.2.bias f4 [10]
000000 95 a3 c8 3e ae fb 94 3d 0e f9 5f 3d eb 22 a0 3d
       0.39187303 0.072745666 0.054680876 0.0781916
000010 9a fa 5b bd 92 1c 3e 3e c5 64 36 3e 71 54 8f be
       -0.05370579 0.18565586 0.17811878 -0.2799411
000020 94 97 36 be cf 93 dc bd
       -0.1783126 -0.1077038

classifier.1.weight f4 [10, 490]
000000 b7 62 7a bc 24 da da bd 9d a9 25 3e 91 57 14 be
       -0.0152823245 -0.10686138 0.16177984 -0.14486529
000010 68 46 26 3e c0 3f 18 bd 7f 4a ee 3d 60 00 cd 3d
       0.16237795 -0.03717017 0.11635303 0.10009837
000020 c4 f6 b2 3e 26 ea b3 3d 10 e1 8d be d4 3d 27 3e
       0.34953892 0.08784895 -0.27710772 0.1633218
000030 e3 32 de 3d 57 db e9 3d 24 a5 5d 3d 2e 14 05 3e
       0.108495496 0.11418789 0.05411257 0.12995979
000040 11 30 2b 3e 6e c7 63 be b3 fd b2 3c e7 e8 94 3c
       0.16717555 -0.22244045 0.021849489 0.018177463
000050 e1 f8 13 be 27 27 22 bd 40 83 67 3e 55 eb 2e 3d
       -0.14450409 -0.03958812 0.22608662 0.0427049
000060 ab 17 c3 bc dc fa a9 3c 67 87 64 bd 66 b4 41 be
       -0.023814997 0.020749502 -0.055793192 -0.18916473
000070 cf 33 d2 bd 53 60 41 3d 32 c9 65 bd d3 63 48 3d
       -0.10263788 0.047211003 -0.056100078 0.048923325
000080 b2 c6 56 3e 99 fe 62 bc 81 6f b6 3c 7f 15 ac 3c
       0.20974234 -0.013854646 0.022269966 0.021006344
000090 ce 82 d3 bd 58 67 b2 bd 6a 8a 2a be 0e 5a 67 bd
       -0.103276834 -0.087111175 -0.16654363 -0.056482367
0000a0 e3 1f 6e 3e 6f 1b 8f bd e3 fe 38 3e 97 f9 70 be
       0.23254351 -0.069876544 0.18065982 -0.23532711
0000b0 80 67 94 be 22 32 a8 3c 7c e2 ed 3c 98 17 aa 3e
       -0.28985214 0.020531718 0.02903866 0.33221126
0000c0 38 a4 34 bc c9 44 96 3e e5 85 98 3e a1 b5 84 be
       -0.011025481 0.29349354 0.29789653 -0.25919822
0000d0 d3 4e d6 bd 95 32 6e bd 45 15 0b be 5f 23 75 3e
       -0.10464253 -0.058153708 -0.13582332 0.23939274
0000e0 3f 78 d0 3d ac 24 ac 39 a9 29 d4 bd 6b 2f 08 be
       0.10179185 0.0003283372 -0.103595085 -0.13299339
0000f0 1d a1 0a 3e e7 8a 1e bd 01 d1 d3 bd d2 53 40 3b
       0.13538022 -0.038706686 -0.10342599 0.0029346836
000100 17 b6 26 3e 5e d9 a4 bd 98 06 ad bd 21 f8 cd bd
       0.162804 -0.08049272 -0.08448523 -0.100570925
000110 3b 5f 35 3e f3 47 d9 bc c8 d3 9c 3d 5a 29 4c 3d
       0.17712109 -0.026523566 0.076575816 0.049844123
000120 28 db a0 3c 11 6e fb bd db 38 a4 bd 4b b4 89 3e
       0.019635752 -0.12276853 -0.08018657 0.26895365
000130 88 05 4c bd 2c 48 b4 3d 33 f2 bc bd ae db 9e bb
       -0.049809963 0.08802828 -0.09225883 -0.004847965
000140 ca 6b c1 bd 03 a6 36 3e e7 ce 3c 3e 1a 47 05 be
       -0.09444387 0.17836766 0.18438302 -0.13015404
000150 da f6 2e be 3d de 59 3d 8e 56 02 be 28 92 fa bd
       -0.17086354 0.05319046 -0.1272833 -0.12234908
000160 62 37 31 bd 34 38 56 bd 0c f3 55 3e 38 e1 15 be
       -0.043265708 -0.052299693 0.20893496 -0.14636695
000170 a5 55 85 3c b8 66 4b 3e 1c 37 92 3d 67 c2 1d be
       0.01627619 0.19863403 0.071394175 -0.1540619
000180 64 86 18 be 02 f5 48 3e 77 37 be 3d fb c9 0d be
       -0.14895016 0.19624713 0.09287923 -0.1384658
000190 39 b7 49 3d 03 c2 b7 3d a8 0f 2a 3e 4c 91 69 3e
       0.049247 0.08972552 0.16607535 0.22809333
0001a0 b1 a7 9f 3b 27 e4 02 3e 20 9c da 3d a9 cf 0d 3d
       0.0048722853 0.12782346 0.1067431 0.03462187
0001b0 1c 71 73 3e a3 a1 a8 3c 1f dc d2 3d 54 cf 3a 3d
       0.23773617 0.020584887 0.10295891 0.04560788
0001c0 35 e6 db 3d 2c 8b 6f 3e 62 c7 89 3e ef e6 82 3d
       0.10737268 0.23392934 0.2690993 0.06391703
0001d0 b7 d3 60 3e bd 8d d9 bd 84 0f c7 bc 1c 18 28 3c
       0.21955763 -0.106227376 -0.02429939 0.010259654
0001e0 bd df 18 be 3b c3 c4 3c 8f 75 ee bd 4c 9b df bd
       -0.149291 0.024018874 -0.11643516 -0.109182924
0001f0 b9 1e 8a 3e 0e ea 53 bd 04 47 89 be 74 00 37 bd
       0.26976565 -0.051736884 -0.26811993 -0.044678167
000200 8d d5 d5 3c 8c 78 06 bd 2c 58 97 bd 11 83 d7 bc
       0.026102806 -0.032829806 -0.07389864 -0.026307615
000210 a5 d8 02 3d a7 98 0f bd 26 6a 16 3e 02 c3 09 3e
       0.03194489 -0.03505769 0.1468893 0.13453296
000220 c5 06 df bc 87 2c 4e be 99 3e 9f bd 47 f7 b1 3d
       -0.027224908 -0.20134173 -0.077756114 0.086897425
000230 a6 20 1a be e4 74 47 3d 90 cf 9a bc e6 f1 ec bd
       -0.15051517 0.04869546 -0.018897802 -0.11569576
000240 04 e0 87 3d b5 16 56 be fa bc 97 bd 7e 0c af 3e
       0.066345245 -0.209071 -0.07409091 0.34189218
000250 85 95 f6 39 e7 f7 dd 3c 1f cd aa bd 66 76 bd 3c
       0.00047032177 0.027095748 -0.08339905 0.023127746
000260 04 e7 e1 3d 26 8f 9d bd 2c 74 87 be cb 56 68 3c
       0.11030391 -0.07693319 -0.2645582 0.014180849
000270 5d ee 56 3c 1d b4 91 3c b0 1f 25 bd 9e 2d 38 be
       0.013118354 0.01778608 -0.040313423 -0.17986152
000280 9f 58 fd bd 40 48 06 be 70 62 9e bd e9 12 4d 3d
       -0.12370419 -0.13113499 -0.07733619 0.050066862
000290 3d fe 84 3d 87 0e 2e bd d5 87 5a bd ba ff b9 3d
       0.064938046 -0.042494323 -0.053352196 0.09081979
0002a0 2f b8 25 3d a9 b5 ff 3d e4 7b 82 bd 4b 3f 11 3d
       0.040458854 0.12485821 -0.063712865 0.03546075
0002b0 25 da e2 3c 8f 28 4c 3d 17 4f 1f 3e ef e9 7a 3d
       0.02769191 0.049843367 0.15557514 0.061258253
0002c0 70 7a 88 3e ed 79 47 bd 65 e6 10 be ec ed ff bd
       0.26655912 -0.04870026 -0.14150389 -0.12496552
0002d0 c7 a5 f5 bd dd 04 43 3e c5 d9 89 bc f9 7c 97 3e
       -0.1199451 0.19044824 -0.016827473 0.29587534
0002e0 99 07 5c bd e4 b9 cb bd d2 d4 11 bd 68 c5 29 bd
       -0.053718183 -0.09947565 -0.035603352 -0.041448027
0002f0 23 56 3b 3e 20 61 c1 bc 01 9c 97 bd fb 30 b8 3d
       0.18294577 -0.023605883 -0.07402802 0.08993717
000300 3a f0 16 be f7 cf a8 be 32 25 2f be 67 50 b6 3c
       -0.14740077 -0.32971165 -0.17104033 0.022255136
000310 0e a3 a7 bc c2 65 6f bb 63 97 5e 3d dd 3d fc bd
       -0.020463493 -0.0036529158 0.054343592 -0.12316487
000320 07 eb bc 3d fa 1f b8 3b 73 ee 22 bd b3 33 f1 3d
       0.092245154 0.0056190463 -0.039778184 0.11777439
000330 77 2f ce bd 09 c8 8b 3e 7f 20 87 3e b9 e7 39 3e
       -0.10067647 0.27301052 0.2639198 0.18154801
000340 67 2c 4a be 30 55 9f 3c fb 27 c9 3d 87 2b 51 3e
       -0.197435 0.0194498 0.09822079 0.2042676
000350 ac 6a 5f bd 08 e3 3a 3e 14 47 3d 3e 2a ea 95 3e
       -0.05454509 0.18250668 0.18484145 0.29280216
000360 9b 69 38 3e 06 39 5c 3e 70 ec d8 bc bd a9 8c be
       0.18009035 0.21506128 -0.02647993 -0.2747325
000370 f9 51 eb 3c 72 bd bd 3d 66 53 7a 3e 17 eb 87 3d
       0.028725611 0.092646495 0.24445876 0.06636637
000380 62 84 18 3e ac b5 ea bd e5 6a 51 be 93 f3 c8 3d
       0.1489425 -0.114604324 -0.20450933 0.09812083
000390 c4 a7 d4 bd f7 61 b0 bd e5 f1 9c bd 3e c9 ab bc
       -0.10383561 -0.08612435 -0.07663325 -0.020969983
0003a0 59 67 08 be a4 99 82 3d 0e 3a d6 3b 30 0a 0d bd
       -0.13320674 0.06376961 0.0065376824 -0.034433544
0003b0 50 1f 06 3e c5 ab 89 3c 99 03 e8 bc b6 90 d7 bd
       0.13097882 0.016805539 -0.028322028 -0.10525648
0003c0 52 00 3e 3e 21 52 de 3d 6a cb 62 be 50 07 de bd
       0.1855481 0.108555086 -0.22147909 -0.108412385
0003d0 c4 6f 92 bb 7a 60 2f bd 11 ef 2e 3e d4 b1 d8 bd
       -0.00446889 -0.042816617 0.17083384 -0.10580793
0003e0 45 ea 2b 3e e0 d1 23 3e f2 e5 af 3e da 6b 74 3e
       0.16788585 0.1599803 0.34355122 0.23869267
0003f0 3f da 31 bd df 4d af bd bc e6 d1 bd 82 4e 48 3e
       -0.043421026 -0.085597746 -0.10249087 0.19561198

classifier.1.bias f4 [10]
000000 3d 77 3c 3e e0 0a 1d be 21 4d d2 3e ed 59 4e 3d
       0.18404861 -0.1533618 0.4107447 0.05037873
000010 c1 e8 ec be 7e b9 81 be c8 10 c5 3d 6c a0 cd 3d
       -0.46271327 -0.25336832 0.096223414 0.10040364
000020 94 fb 13 3e c8 64 1d be
       0.14451438 -0.15370476
